2022-02-12 09:57:21,450 - 2022-02-12,09:57train.py.log - INFO - total_images : 69853
2022-02-12 09:57:21,451 - 2022-02-12,09:57train.py.log - INFO - FCOSDetector(
  (fcos_body): FCOS(
    (backbone): Darknet19(
      (block1): Sequential(
        (0): Conv2d(3, 32, kernel_size=(3, 3), stride=(1, 1), padding=(1, 1), bias=False)
        (1): BatchNorm2d(32, eps=1e-05, momentum=0.1, affine=True, track_running_stats=True)
        (2): LeakyReLU(negative_slope=0.1, inplace=True)
        (3): MaxPool2d(kernel_size=2, stride=2, padding=0, dilation=1, ceil_mode=False)
        (4): Conv2d(32, 64, kernel_size=(3, 3), stride=(1, 1), padding=(1, 1), bias=False)
        (5): BatchNorm2d(64, eps=1e-05, momentum=0.1, affine=True, track_running_stats=True)
        (6): LeakyReLU(negative_slope=0.1, inplace=True)
        (7): MaxPool2d(kernel_size=2, stride=2, padding=0, dilation=1, ceil_mode=False)
        (8): Conv2d(64, 128, kernel_size=(3, 3), stride=(1, 1), padding=(1, 1), bias=False)
        (9): BatchNorm2d(128, eps=1e-05, momentum=0.1, affine=True, track_running_stats=True)
        (10): LeakyReLU(negative_slope=0.1, inplace=True)
        (11): Conv2d(128, 64, kernel_size=(1, 1), stride=(1, 1), bias=False)
        (12): BatchNorm2d(64, eps=1e-05, momentum=0.1, affine=True, track_running_stats=True)
        (13): LeakyReLU(negative_slope=0.1, inplace=True)
        (14): Conv2d(64, 128, kernel_size=(3, 3), stride=(1, 1), padding=(1, 1), bias=False)
        (15): BatchNorm2d(128, eps=1e-05, momentum=0.1, affine=True, track_running_stats=True)
        (16): LeakyReLU(negative_slope=0.1, inplace=True)
        (17): MaxPool2d(kernel_size=2, stride=2, padding=0, dilation=1, ceil_mode=False)
        (18): Conv2d(128, 256, kernel_size=(3, 3), stride=(1, 1), padding=(1, 1), bias=False)
        (19): BatchNorm2d(256, eps=1e-05, momentum=0.1, affine=True, track_running_stats=True)
        (20): LeakyReLU(negative_slope=0.1, inplace=True)
        (21): Conv2d(256, 128, kernel_size=(1, 1), stride=(1, 1), bias=False)
        (22): BatchNorm2d(128, eps=1e-05, momentum=0.1, affine=True, track_running_stats=True)
        (23): LeakyReLU(negative_slope=0.1, inplace=True)
        (24): Conv2d(128, 256, kernel_size=(3, 3), stride=(1, 1), padding=(1, 1), bias=False)
        (25): BatchNorm2d(256, eps=1e-05, momentum=0.1, affine=True, track_running_stats=True)
        (26): LeakyReLU(negative_slope=0.1, inplace=True)
      )
      (block2): Sequential(
        (0): MaxPool2d(kernel_size=2, stride=2, padding=0, dilation=1, ceil_mode=False)
        (1): Conv2d(256, 512, kernel_size=(3, 3), stride=(1, 1), padding=(1, 1), bias=False)
        (2): BatchNorm2d(512, eps=1e-05, momentum=0.1, affine=True, track_running_stats=True)
        (3): LeakyReLU(negative_slope=0.1, inplace=True)
        (4): Conv2d(512, 256, kernel_size=(1, 1), stride=(1, 1), bias=False)
        (5): BatchNorm2d(256, eps=1e-05, momentum=0.1, affine=True, track_running_stats=True)
        (6): LeakyReLU(negative_slope=0.1, inplace=True)
        (7): Conv2d(256, 512, kernel_size=(3, 3), stride=(1, 1), padding=(1, 1), bias=False)
        (8): BatchNorm2d(512, eps=1e-05, momentum=0.1, affine=True, track_running_stats=True)
        (9): LeakyReLU(negative_slope=0.1, inplace=True)
        (10): Conv2d(512, 256, kernel_size=(1, 1), stride=(1, 1), bias=False)
        (11): BatchNorm2d(256, eps=1e-05, momentum=0.1, affine=True, track_running_stats=True)
        (12): LeakyReLU(negative_slope=0.1, inplace=True)
        (13): Conv2d(256, 512, kernel_size=(3, 3), stride=(1, 1), padding=(1, 1), bias=False)
        (14): BatchNorm2d(512, eps=1e-05, momentum=0.1, affine=True, track_running_stats=True)
        (15): LeakyReLU(negative_slope=0.1, inplace=True)
      )
      (block3): Sequential(
        (0): MaxPool2d(kernel_size=2, stride=2, padding=0, dilation=1, ceil_mode=False)
        (1): Conv2d(512, 1024, kernel_size=(3, 3), stride=(1, 1), padding=(1, 1), bias=False)
        (2): BatchNorm2d(1024, eps=1e-05, momentum=0.1, affine=True, track_running_stats=True)
        (3): LeakyReLU(negative_slope=0.1, inplace=True)
        (4): Conv2d(1024, 512, kernel_size=(1, 1), stride=(1, 1), bias=False)
        (5): BatchNorm2d(512, eps=1e-05, momentum=0.1, affine=True, track_running_stats=True)
        (6): LeakyReLU(negative_slope=0.1, inplace=True)
        (7): Conv2d(512, 1024, kernel_size=(3, 3), stride=(1, 1), padding=(1, 1), bias=False)
        (8): BatchNorm2d(1024, eps=1e-05, momentum=0.1, affine=True, track_running_stats=True)
        (9): LeakyReLU(negative_slope=0.1, inplace=True)
        (10): Conv2d(1024, 512, kernel_size=(1, 1), stride=(1, 1), bias=False)
        (11): BatchNorm2d(512, eps=1e-05, momentum=0.1, affine=True, track_running_stats=True)
        (12): LeakyReLU(negative_slope=0.1, inplace=True)
        (13): Conv2d(512, 1024, kernel_size=(3, 3), stride=(1, 1), padding=(1, 1), bias=False)
        (14): BatchNorm2d(1024, eps=1e-05, momentum=0.1, affine=True, track_running_stats=True)
        (15): LeakyReLU(negative_slope=0.1, inplace=True)
      )
    )
    (fpn): FPN(
      (prj_5): Conv2d(1024, 256, kernel_size=(1, 1), stride=(1, 1))
      (prj_4): Conv2d(512, 256, kernel_size=(1, 1), stride=(1, 1))
      (prj_3): Conv2d(256, 256, kernel_size=(1, 1), stride=(1, 1))
      (conv_5): Conv2d(256, 256, kernel_size=(3, 3), stride=(1, 1), padding=(1, 1))
      (conv_4): Conv2d(256, 256, kernel_size=(3, 3), stride=(1, 1), padding=(1, 1))
      (conv_3): Conv2d(256, 256, kernel_size=(3, 3), stride=(1, 1), padding=(1, 1))
      (conv_out6): Conv2d(256, 256, kernel_size=(3, 3), stride=(2, 2), padding=(1, 1))
      (conv_out7): Conv2d(256, 256, kernel_size=(3, 3), stride=(2, 2), padding=(1, 1))
    )
    (head): ClsCntRegHead(
      (cls_conv): Sequential(
        (0): Conv2d(256, 256, kernel_size=(3, 3), stride=(1, 1), padding=(1, 1))
        (1): GroupNorm(32, 256, eps=1e-05, affine=True)
        (2): ReLU(inplace=True)
        (3): Conv2d(256, 256, kernel_size=(3, 3), stride=(1, 1), padding=(1, 1))
        (4): GroupNorm(32, 256, eps=1e-05, affine=True)
        (5): ReLU(inplace=True)
        (6): Conv2d(256, 256, kernel_size=(3, 3), stride=(1, 1), padding=(1, 1))
        (7): GroupNorm(32, 256, eps=1e-05, affine=True)
        (8): ReLU(inplace=True)
        (9): Conv2d(256, 256, kernel_size=(3, 3), stride=(1, 1), padding=(1, 1))
        (10): GroupNorm(32, 256, eps=1e-05, affine=True)
        (11): ReLU(inplace=True)
      )
      (reg_conv): Sequential(
        (0): Conv2d(256, 256, kernel_size=(3, 3), stride=(1, 1), padding=(1, 1))
        (1): GroupNorm(32, 256, eps=1e-05, affine=True)
        (2): ReLU(inplace=True)
        (3): Conv2d(256, 256, kernel_size=(3, 3), stride=(1, 1), padding=(1, 1))
        (4): GroupNorm(32, 256, eps=1e-05, affine=True)
        (5): ReLU(inplace=True)
        (6): Conv2d(256, 256, kernel_size=(3, 3), stride=(1, 1), padding=(1, 1))
        (7): GroupNorm(32, 256, eps=1e-05, affine=True)
        (8): ReLU(inplace=True)
        (9): Conv2d(256, 256, kernel_size=(3, 3), stride=(1, 1), padding=(1, 1))
        (10): GroupNorm(32, 256, eps=1e-05, affine=True)
        (11): ReLU(inplace=True)
      )
      (cls_logits): Conv2d(256, 20, kernel_size=(3, 3), stride=(1, 1), padding=(1, 1))
      (cnt_logits): Conv2d(256, 1, kernel_size=(3, 3), stride=(1, 1), padding=(1, 1))
      (reg_pred): Conv2d(256, 4, kernel_size=(3, 3), stride=(1, 1), padding=(1, 1))
    )
  )
  (target_layer): GenTargets()
  (loss_layer): LOSS()
)
2022-02-12 09:57:50,656 - 2022-02-12,09:57train.py.log - INFO - global_steps:50 epoch:1 steps:50/4365 cls_loss:0.5060 cnt_loss:0.6803 reg_loss:1.1474 cost_time:247ms lr=4.9900e-04 total_loss:2.3336
2022-02-12 09:58:16,688 - 2022-02-12,09:57train.py.log - INFO - global_steps:100 epoch:1 steps:100/4365 cls_loss:0.4777 cnt_loss:0.6573 reg_loss:0.9681 cost_time:235ms lr=9.9800e-04 total_loss:2.1032
…
